batch_size: 128
num_epoch: 1000 

Model: "sequential"
_________________________________________________________________
Layer (type)                 Output Shape              Param #   
=================================================================
conv2d (Conv2D)              (None, 46, 46, 32)        320       
_________________________________________________________________
batch_normalization (BatchNo (None, 46, 46, 32)        128       
_________________________________________________________________
conv2d_1 (Conv2D)            (None, 44, 44, 64)        18496     
_________________________________________________________________
batch_normalization_1 (Batch (None, 44, 44, 64)        256       
_________________________________________________________________
max_pooling2d (MaxPooling2D) (None, 22, 22, 64)        0         
_________________________________________________________________
dropout (Dropout)            (None, 22, 22, 64)        0         
_________________________________________________________________
conv2d_2 (Conv2D)            (None, 20, 20, 128)       73856     
_________________________________________________________________
batch_normalization_2 (Batch (None, 20, 20, 128)       512       
_________________________________________________________________
max_pooling2d_1 (MaxPooling2 (None, 10, 10, 128)       0         
_________________________________________________________________
conv2d_3 (Conv2D)            (None, 8, 8, 128)         147584    
_________________________________________________________________
batch_normalization_3 (Batch (None, 8, 8, 128)         512       
_________________________________________________________________
max_pooling2d_2 (MaxPooling2 (None, 4, 4, 128)         0         
_________________________________________________________________
dropout_1 (Dropout)          (None, 4, 4, 128)         0         
_________________________________________________________________
flatten (Flatten)            (None, 2048)              0         
_________________________________________________________________
dense (Dense)                (None, 1024)              2098176   
_________________________________________________________________
dropout_2 (Dropout)          (None, 1024)              0         
_________________________________________________________________
dense_1 (Dense)              (None, 7)                 7175      
=================================================================
Total params: 2,347,015
Trainable params: 2,346,311
Non-trainable params: 704
_________________________________________________________________
