batch_size: 64
num_epoch: 28 

Model: "sequential"
_________________________________________________________________
Layer (type)                 Output Shape              Param #   
=================================================================
conv2d (Conv2D)              (None, 44, 44, 32)        832       
_________________________________________________________________
conv2d_1 (Conv2D)            (None, 40, 40, 64)        51264     
_________________________________________________________________
max_pooling2d (MaxPooling2D) (None, 20, 20, 64)        0         
_________________________________________________________________
dropout (Dropout)            (None, 20, 20, 64)        0         
_________________________________________________________________
conv2d_2 (Conv2D)            (None, 17, 17, 128)       131200    
_________________________________________________________________
conv2d_3 (Conv2D)            (None, 14, 14, 128)       262272    
_________________________________________________________________
max_pooling2d_1 (MaxPooling2 (None, 7, 7, 128)         0         
_________________________________________________________________
conv2d_4 (Conv2D)            (None, 5, 5, 128)         147584    
_________________________________________________________________
conv2d_5 (Conv2D)            (None, 3, 3, 128)         147584    
_________________________________________________________________
max_pooling2d_2 (MaxPooling2 (None, 1, 1, 128)         0         
_________________________________________________________________
dropout_1 (Dropout)          (None, 1, 1, 128)         0         
_________________________________________________________________
flatten (Flatten)            (None, 128)               0         
_________________________________________________________________
dense (Dense)                (None, 1024)              132096    
_________________________________________________________________
dropout_2 (Dropout)          (None, 1024)              0         
_________________________________________________________________
dense_1 (Dense)              (None, 7)                 7175      
=================================================================
Total params: 880,007
Trainable params: 880,007
Non-trainable params: 0
_________________________________________________________________
